scripts/lstm_model.pth (torch, 208035 bytes, 13 tensors)

lstm.weight_ih_l0 f4 [200, 1]
00000000: 3d95 1b3d 7ce4 303e 485c 813d e3a6 093e
00000010: 852d e93d 45af 013e 217b 513e 1aaa 253e
00000020: fe33 523e d571 a33e 6b33 9b3d 887b 4c3e
00000030: cd9b 103e 05ff 803d dfd5 983e 3e6c 4e3e
00000040: 1037 2b3e 1cfa 693e f06f 59bd 12d4 a23e
00000050: 03e5 963e 2d9a ca3d d346 9a3e 2b0e 7d3e
00000060: 2de9 403d 1663 923e afd0 983e fec4 5f3e
00000070: 6d9a a33e ef0a 483d d4d4 723e dc50 733d
00000080: ddc1 e43d 0800 89bd 8a1b c03d e287 e73d
00000090: 8c2a 583e 36a7 593e b16d a43e 2cac 8fbc
000000a0: 716c 473e 915c 953e b23c f23d 766f 023e
000000b0: bad5 8d3e 81f7 b73d a072 6e3e 51fe af3e
000000c0: 8abe fc3d 8d8a 153d 65c2 e03d 7078 acbd
000000d0: 5348 10bd ca4b fe3b 08df 6bbd 6728 4e3d
000000e0: d301 0ebe 4f76 d9bd f551 f73d e1b0 7fbd
000000f0: e7d1 c63c 5446 8e3c 526b 6ebd 304e b83d
00000100: 03f7 c03d 2537 0e3d 83f9 623b a023 933d
00000110: 12a3 a0bc 52e9 c3bd deed be3d a2f1 3bbd
00000120: 2969 1c3d d3e2 033e 1464 fc3d 859e e8bd
00000130: 2d6e 98bd 806c b6bd 64f9 e03c cd13 10be
00000140: b646 2cbd ecf3 d03c ffde d7bd 2abd d53d
00000150: c828 ba3d d9eb fabd a3b8 b6bd 309f d73d
00000160: 6be1 b7bd 63a4 c03c bbfa 57bd 641f f6bd
00000170: 3c75 f13d 0f5b 8d3d 91ad 503c 69e3 073d
00000180: ef64 083b b23a d2bd 3fce cdbd 793b 1b3c
00000190: a47d e53d eb10 a23e 85bf ab3c 3fde a93a
000001a0: dcf7 a6be 6f22 9bbd d2c8 933e 07dd a6be
000001b0: c638 debd 503f 8bbe aa09 2fbe 6204 7ebe
000001c0: fc64 1cbe e04b a03d 2b3a 25be ffc5 8dbe
000001d0: 6dc1 80be b4de 993e 872d 13be c85f a2be
000001e0: e0ce 4d3e 9f64 1cbe 6919 a0be 6321 803e
000001f0: e01c 8e3e dba2 9abe 3bfa 483e 0b48 8cbe
00000200: 2158 3b3e 2f39 c13c 01d7 943e 2a89 e5bc
00000210: 808e 903e b268 203e 4099 1fbe 9448 983e
00000220: 58ec 58be d674 63be 5bd2 65be bdb9 2e3e
00000230: 2b5b 913e 13ec e2bd 19ad 8b3e 99b5 94be
00000240: d0f7 6a3e 9259 adbe 7dc1 bbbc e7b2 993e
00000250: 123a ebbd dd77 89be 9c6d 923e 572b 123e
00000260: d9c6 443e 3fd9 913d 0bd6 883e e471 413d
00000270: 71eb 293e 39e6 b23e df90 a93e ee49 5a3e
00000280: c66f 9c3e b767 9e3d 1965 783e 1c74 aa3e
00000290: 4bbf d23d 3d65 053e 084f 993e 3f1a 6f3e
000002a0: 6315 60be 4bb0 b83e 697e 813e c15d 793d
000002b0: bf4c a23d 34f1 9c3e 7286 303e 03fc a43e
000002c0: 3f6f 403e 8bce 8a3e 9d00 7e3e 99c1 553e
000002d0: 9625 0d3e 4259 2b3e 33a2 513e 7756 36be
000002e0: 5dd5 aa3d c507 643e 2ccb 873e 299b 013e
000002f0: 73c1 a53e f111 0d3d 5de2 0d3e db1d 0b3e
00000300: 1702 5d3e eee3 b23d b3e3 703e a4a8 a33d
00000310: 8484 823e 1588 593e f576 493e e80e 423e
0.03798412 0.1727466 0.063164294 0.13442568 0.11385635 0.12664516 0.20457126 0.1617817
0.20527646 0.31922784 0.075781666 0.19968998 0.14121933 0.06298641 0.2985067 0.20158479
0.16720223 0.22849315 -0.053085268 0.31802422 0.29471597 0.09892688 0.3013216 0.24712436
0.047097374 0.28591222 0.29846713 0.2185249 0.31953755 0.048838552 0.23714 0.059403285
0.11169789 -0.06689459 0.09380253 0.113052145 0.2110998 0.21255192 0.32114938 -0.017538153
0.19474961 0.29172185 0.11827983 0.12737831 0.27702123 0.089827545 0.23285913 0.34373716
0.1234103 0.036509085 0.10974578 -0.08421409 -0.035225224 0.0077604996 -0.057585746 0.0503315
-0.13867883 -0.10618269 0.12076179 -0.062424544 0.024270011 0.01736752 -0.058207817 0.08999288
0.09422114 0.03472056 0.0034633584 0.07184529 -0.019609008 -0.09565987 0.09322713 -0.045884736
0.038186226 0.12879495 0.12323776 -0.1135836 -0.07442889 -0.089074135 0.027462669 -0.14070053
-0.042059623 0.025506936 -0.1054058 0.10436471 0.0908981 -0.122520156 -0.089219354 0.105284095
-0.08978542 0.023515886 -0.05272935 -0.12017706 0.11789939 0.06902134 0.012736694 0.03317586
0.0020812114 -0.102651015 -0.10049104 0.009474629 0.11205605 0.31653532 0.020965347 0.0012959911
-0.32610977 -0.07574927 0.2886415 -0.32590505 -0.108506724 -0.2719674 -0.1709353 -0.2480636
-0.15272897 0.07826972 -0.1613547 -0.27690122 -0.25147572 0.30052722 -0.14372836 -0.317137
0.20098448 -0.15272759 -0.31269386 0.25025472 0.27756405 -0.30202374 0.19626705 -0.27398714
0.18295337 0.023586838 0.29070285 -0.028019506 0.2823372 0.15664938 -0.15585804 0.29742873
-0.21183908 -0.22212538 -0.22443525 0.17063041 0.28389868 -0.11080184 0.272805 -0.29044798
0.22946095 -0.338574 -0.02291941 0.30019304 -0.114856854 -0.2684926 0.2859925 0.14274345
0.1921648 0.071215145 0.26725802 0.047227755 0.1659372 0.3494127 0.3311834 0.21317264
0.30554026 0.07734626 0.24257316 0.3329171 0.102903925 0.130269 0.2994311 0.23349856
-0.21883158 0.36072 0.25291756 0.060880426 0.079247944 0.30652773 0.17238787 0.3222352
0.18792437 0.27110705 0.24804921 0.20874633 0.13783869 0.16733268 0.2047203 -0.17806421
0.08341477 0.22268589 0.26522195 0.12656845 0.32374153 0.03444094 0.13855882 0.13585608
0.21582828 0.087348804 0.2352436 0.0799115 0.25491726 0.21243317 0.19674285 0.18950999

lstm.weight_hh_l0 f4 [200, 50]
00000000: 3b95 293d 9e1b d23d cc17 8abd d1ad 173d
00000010: abd3 dfbd 3ae8 86bc fa82 4bbd 0ab5 043e
00000020: 0595 b1bd 386d 03be bf68 f33d fa73 573d
00000030: a9db 483d 6867 57bd 4969 0dbe 7765 083e
00000040: 8a83 a4bd 314b 0fbe 0189 58bd 52a5 a3bd
00000050: 8068 b83c cc2e c0ba 09f6 a5bd 2b81 85bd
00000060: e203 b43d 20a8 29bd 2bac 52bd 92ef 403d
00000070: 86e8 afbc da82 21bd 2472 3fbb 25ea ffbd
00000080: 8aa3 b23d f880 ed3c 098a 593c 6b38 0c3e
00000090: 72d9 f83c 6e6b 4bbd ec24 15bd 2d62 ca3d
000000a0: 6523 bebd a674 ccbd 1664 8abd 481e a33d
000000b0: 4793 fe3c 4ce5 cdbb dbf9 d8bc ba14 0cbd
000000c0: adc8 dc3d 4247 bb3d ef55 09bd 7d06 a13b
000000d0: 9eb1 78bd 52a0 0bbc 745c 8c3d c632 cbbd
000000e0: ec22 b83d 26b1 a4bd d988 9d3a c946 28bd
000000f0: 1782 c4bd 2945 8f3d 2c17 9d3d 7676 8abd
00000100: 6752 863d 2f75 b13d 3bb3 8f3d 28a0 673d
00000110: 6473 50bd 4099 10be 2d81 be3d cfcc b13d
00000120: 5ef7 753c 0b96 1ebd 91e6 25bd c69d 233d
00000130: 0704 92bd 9dc9 ee3d 70af d43d 3505 383d
00000140: c563 843c bca2 d33c fc60 a7bd e441 3abd
00000150: 8d0f abbc d6df 0b3d a508 babd 921e e73d
00000160: 6034 533d 94e2 1dbc 3182 debc 01fd f8bd
00000170: 427f 0f3d 9a49 6d3d 3740 363d c555 253d
00000180: 206e 203d 7ece d9bd 0eec 68bb 8079 163d
00000190: 3781 efbd 2578 663b 94be 0fbe 540a 86bd
000001a0: de7a 05bd c05b e23d da95 a33d c5b6 973d
000001b0: e934 d73d 539f 9cbc ddcb 1dbd 71e6 a6bd
000001c0: 89d5 90bd 56f6 05be 0773 ee3d 8cf9 dabd
000001d0: 455a dcbd 9ff5 ae3d 6b1f 753c 6ed8 e3bd
000001e0: cc84 21bd e0bb b2bd a0bc b13d c655 d7bd
000001f0: fca5 e5bd f947 c73d 74b8 47bd a04c 223d
00000200: c68c 523a 0a73 b5bd 1bd2 db3d dd06 dd3d
00000210: 6e3a 663d a50f 8f3d daf6 0e3e c01f 4dbd
00000220: 8463 823d 274a 0fbe c712 09be 0e74 02be
00000230: dc5c d8bd 8ad2 7d3d 38e9 c4bb 1878 f8bd
00000240: 33f1 47bc b2b2 cc3d 8a77 f43d e7dd a73d
00000250: ddcb b4bd 46b8 b43d 1252 96bd c4c8 f0bc
00000260: 71fb 073e 9834 10be 6ff2 b53c 24af b9bd
00000270: 7d37 06bd b33d cabd 9529 de3d a6f7 c0bd
00000280: 0d8e 10be fea6 0d3e b3bd e53d b028 6dbd
00000290: 37e9 893d c4da de3d 11b8 d9bd 0541 023e
000002a0: 9b9a 9a3b 62b4 96bc 6f51 0c3e 9cce f93d
000002b0: 5d50 ed3d 033e 7bbc 51e7 943d ea62 6f3d
000002c0: 521c 963c 5cd3 45bd 8bde 8fbc 36c8 6b3d
000002d0: ee2c 9e3c 7b79 eebd 8e3c e43c ad25 143c
000002e0: 6156 663d c496 e23c 57ee 023e e00c 193d
000002f0: 3cd0 ef3d fdbf c13d db62 d4bc acad efbd
00000300: a26a 6ebb 69ae e9bd 564a 043e 8054 d93d
00000310: 3214 d03d 7eb9 efbd 9265 a0bd de63 c73d
00000320: 084e 883d be2c 0c3e 913c 0f3e 4f75 b73d
00000330: 14e9 443d 4302 9abd bf47 62bd fbfa 34bc
00000340: b108 48bd 4a85 1abd 9baa c63d 81d4 973d
00000350: 9f09 c73d 666e bf3d 4d2e c93c 6509 c5bd
00000360: 399b a93d 78f6 243d 8b0e 0c3e d56b 65bd
00000370: f0fa 75bd bd44 d83d 6cb5 3fbd 058f 5b3d
00000380: 0f16 84bd 0c9b 863c a807 04be d1e4 67bd
00000390: 33c1 003e dd16 b2bd dfbe 5f3d 2342 febd
000003a0: d2fd aa3d d475 0abe 29ce 353d 051e ecbd
000003b0: 4a20 0e3d ef4c f73c 42ab 9abc 78a0 a33d
000003c0: 596a 82bd 4aed 79ba 0b12 6bbd 7fa4 903b
000003d0: 50da 093e 5686 f5bd 8534 213d a641 043e
000003e0: f403 df3d 9bb0 7cbd 378b bf3d 9a88 cfbd
000003f0: fe47 b73d d9cf e93d d0fe afbd 5447 a4bd
0.041402083 0.10259174 -0.0674282 0.037031 -0.10929044 -0.016468156 -0.049685456 0.12959686
-0.08671001 -0.12834632 0.11885213 0.05260084 0.04903761 -0.05258885 -0.13809694 0.13319956
-0.080329016 -0.13993527 -0.052865032 -0.07990517 0.022510767 -0.0014662384 -0.08103568 -0.065187775
0.08789803 -0.041420102 -0.051433723 0.047103472 -0.02147318 -0.03943143 -0.002921232 -0.124958314
0.08722599 0.028992161 0.013277539 0.13693397 0.030377124 -0.049663 -0.036412165 0.09882007
-0.09284095 -0.099831864 -0.06757371 0.0796476 0.031076087 -0.006283438 -0.026486328 -0.034199454
0.10780463 0.09144451 -0.03352922 0.0049141035 -0.060716264 -0.00852211 0.068535715 -0.09921794
0.08991036 -0.08041601 0.0012018933 -0.04108313 -0.09595125 0.06995613 0.07670435 -0.06760876
0.06558686 0.08664929 0.070166074 0.05654922 -0.050891295 -0.1412096 0.09301982 0.08681642
0.01501259 -0.03871731 -0.04050309 0.039945386 -0.071296744 0.116595484 0.103850245 0.04492684
0.016160855 0.025834434 -0.08172795 -0.045472994 -0.020881439 0.034149013 -0.0908368 0.11285128
0.05156362 -0.00963654 -0.02716169 -0.12157632 0.035033472 0.05793152 0.044494834 0.040365
0.039167523 -0.106350884 -0.003554109 0.036736965 -0.11694568 0.0035166827 -0.14037544 -0.06544939
-0.03258788 0.11052656 0.07987566 0.074079074 0.10508139 -0.01911894 -0.038524497 -0.08149422
-0.070719786 -0.13082251 0.116430335 -0.106921285 -0.10759405 0.08542942 0.014961104 -0.11125265
-0.039433286 -0.087272406 0.086785555 -0.10514407 -0.112133 0.097305246 -0.048759893 0.039623857
0.0008031841 -0.088598326 0.10733434 0.10792325 0.056208067 0.06985406 0.13961354 -0.050079107
0.06366637 -0.1399313 -0.13386069 -0.12739584 -0.105645865 0.061968364 -0.006009247 -0.12132281
-0.0122035025 0.09995021 0.11936863 0.081966214 -0.08827946 0.0882421 -0.073398724 -0.029392608
0.13279511 -0.14082563 0.022210328 -0.090666085 -0.03276776 -0.098750494 0.10847775 -0.09422235
-0.14116688 0.13833234 0.11217823 -0.05790013 0.06733935 0.1088157 -0.10630811 0.12720115
0.0047181374 -0.01839656 0.1370294 0.12197611 0.11587594 -0.015334609 0.072706826 0.05844394
0.018324051 -0.04829727 -0.017562171 0.057563983 0.019308534 -0.11644264 0.027860906 0.009042186
0.05623472 0.027659781 0.12786232 0.037365794 0.117096394 0.09460447 -0.025926044 -0.11703047
-0.0036379476 -0.11410219 0.12918982 0.1061182 0.10160102 -0.11705302 -0.07831873 0.09735845
0.06655508 0.13688943 0.13987948 0.08957922 0.048073843 -0.07519963 -0.055244204 -0.0110461665
-0.048836414 -0.03772477 0.09700509 0.07413579 0.09718632 0.09347229 0.02455821 -0.096209325
0.082815595 0.040274113 0.13677423 -0.05601104 -0.060053766 0.10559986 -0.046803877 0.05360319
-0.0644952 0.016431354 -0.12893546 -0.0566147 0.125737 -0.08695767 0.05462539 -0.12414958
0.08349194 -0.1352151 0.044386063 -0.11529163 0.034698762 0.030188052 -0.01888049 0.07989591
-0.063679405 -0.0009533955 -0.057390254 0.0044141407 0.13462186 -0.11988513 0.039356727 0.12915668
0.10889426 -0.06169186 0.09352725 -0.101334766 0.08949278 0.11416597 -0.085935235 -0.08021417

lstm.bias_ih_l0 f4 [200]
00000000: e44c e7bc a5b3 a33e f685 02be 2caf cabd
00000010: 7101 963c 2cc0 b73d 33de 383e 9673 633e
00000020: 2e29 1d3e 5f3e eb3d 6aea 51bc 0b56 733e
00000030: 406e 203e 3f9f 55bd 0d7f 5d3d e750 203e
00000040: 94e9 863e 698c 083e 154b c2bc 3d03 ac3e
00000050: 68a9 613e 077b 043d 5af6 ad3e 58de e33d
00000060: d113 f23c 36b7 593e 7322 f93d 8910 803e
00000070: b9b0 6a3d 924a 9a3c 08e8 f6bc 878b f53d
00000080: 1d38 fe3d 8005 013e c0c3 f43d bb89 7a3e
00000090: d4a7 033e 607e d43d 1976 2d3e 46e0 433e
000000a0: fd6a d33d e167 c83d d5b8 cd3e 7b24 9a3e
000000b0: 5a80 123a 0596 683e f484 0d3c d3b7 9f3e
000000c0: 423f ae3d 2fd0 40bb 7497 99bd 0590 a43d
000000d0: c3ba e7bc 7679 9abd 13bf 7dbc cd9c 8cbd
000000e0: bebf 413d 4ec9 173d ea7a 083e eb47 05bd
000000f0: 1466 503c ac0f b63c f0ea 35bd 78f9 213d
00000100: 112c 9e3d 08ba 22bd 7df3 48bd eb4f 863b
00000110: f5d5 c73d a72d 0ebe b180 9c3d 904d 553d
00000120: be0a a93d 5fdb 02be 104a 57bd 67c1 02be
00000130: d306 a3bd 53bc 75bc 997c 7e3d aa84 9ebd
00000140: 0c29 96bd bb3c 83bd 54b3 8f3d 2ebd abbc
00000150: 8519 eabd 9c6b fb3d 6f6d 0d3e 662e 893d
00000160: 82e9 0dbe fed0 b0bd c559 e13d 699e a43d
00000170: 8d70 67bd 7713 6c3d 14f1 9a3d b434 c5bc
00000180: b57b d9bd 3e72 a43d c4d5 03bd 50e2 0ebe
00000190: 9a90 423a 74c3 4ebe ebcd 02be 5856 29bb
000001a0: 7b64 cf3d 235c 6e3d e51d 38be 57b4 3e3e
000001b0: 099e 96bd 3c0b e93c 4815 f43c cec6 11bd
000001c0: 57be 8fbd 4d1e 2d3e 83a2 0e3d 6b8b 303e
000001d0: 1bc8 153e d44a b8bd e055 e03d d34a 5cbc
000001e0: 0ab3 18bc fefa 79bd a5e7 013e 6989 8abb
000001f0: 0736 0b3d 98dc 983d df99 a93c 89e3 2e3d
00000200: bad2 95bc 605b 113e baf8 083d 6991 b3bd
00000210: 31b4 b0bd 2069 a2bd b6ef b03d 3e43 10be
00000220: ba08 bf3c 5af7 98bc d895 573c 3f0b ae3b
00000230: 2296 483d 6eb7 03bd 1e2d c7bd 5db1 363d
00000240: fc32 05bd 7a95 4d3c 782b c4bd f1b2 333d
00000250: 34ef cbbd c4de 86bd e715 a13c a010 b63e
00000260: 4a4d 9ebd 6a64 c6bc 9fde 2f3d 5ce0 a6bc
00000270: ee99 4b3e ad29 063e c555 a2bd 4a01 a13e
00000280: 5664 d43c 95bc 6c3e 30b8 55bd fc55 89bd
00000290: 121a 1b3e ccef a03e 3e5b 0a3e 0430 413e
000002a0: 3e29 3a3e d7d5 5c3e fb54 5f3e 8a20 97bd
000002b0: 22b8 783e 47ac 2b3e 3200 7ebc 1b73 443e
000002c0: 17db 0f3d 5f54 4e3e ebf1 5b3d 5fd0 923c
000002d0: 7bb2 6e3e 6b59 f33d 0c8d be3c 1c98 a83d
000002e0: e128 bb3d f315 193e 39b1 613e ac91 05bd
000002f0: 90aa 023e 29d9 1b3d 79c3 7a3d d7cd 0f3a
00000300: 2103 ac3e 971d 2f3d f412 d63d 0900 8f3e
00000310: 5d3b f3bd 02c8 fc3d 1148 e7bd 2b4f 06bd
-0.028234906 0.31972995 -0.12746415 -0.09896693 0.018311234 0.08972201 0.18053512 0.22212061
0.1534774 0.11486506 -0.012812236 0.23763292 0.15667057 -0.052153822 0.054076243 0.15655862
0.2635008 0.13334812 -0.023717443 0.3359622 0.2203728 0.03234389 0.33977014 0.11126393
0.029550465 0.21261296 0.12164774 0.25012615 0.057297442 0.018834386 -0.030139938 0.11989503
0.124130465 0.12599754 0.11951399 0.24466603 0.1285699 0.103756666 0.16939582 0.19128522
0.10323141 0.09785438 0.40180078 0.30105957 0.0005588584 0.22713478 0.0086376555 0.31194934
0.08508159 -0.0029420962 -0.074995905 0.08035282 -0.028287297 -0.07542698 -0.01548745 -0.06865845
0.047302 0.037057213 0.13328138 -0.03253929 0.01271965 0.02222427 -0.044413507 0.039544553
0.07723249 -0.039728194 -0.049060334 0.0040988824 0.09757606 -0.13884602 0.076417334 0.052075922
0.08254002 -0.12778996 -0.052560866 -0.1276909 -0.07960286 -0.014998513 0.062130544 -0.077401474
-0.07332048 -0.06408068 0.07016626 -0.020964231 -0.11430649 0.12276384 0.13811277 0.06698303
-0.13858607 -0.08633612 0.1100345 0.08038027 -0.05650382 0.05763575 0.07565513 -0.024072982
-0.10619298 0.080296025 -0.032186285 -0.13953519 0.000742206 -0.20191747 -0.12773864 -0.0025838818
0.10126587 0.058193337 -0.17980154 0.18623482 -0.073543616 0.02844774 0.029795304 -0.035589986
-0.07018726 0.1690609 0.034822952 0.17240684 0.14627115 -0.08998647 0.10953879 -0.013445574
-0.00932003 -0.06103038 0.12686022 -0.0042278063 0.03398707 0.0746395 0.020703254 0.042697463
-0.018288959 0.14195013 0.03344033 -0.08767969 -0.08628119 -0.07930207 0.08639471 -0.14088151
0.02331959 -0.018672634 0.013158284 0.005311399 0.048971303 -0.032157354 -0.09725402 0.04460274
-0.032519326 0.012547845 -0.095786035 0.043871824 -0.09957734 -0.06585458 0.019663764 0.3555956
-0.077295855 -0.024217803 0.042936917 -0.020370655 0.19882938 0.13101836 -0.079265155 0.31446296
0.02592675 0.23118813 -0.052177608 -0.06705853 0.15146664 0.3143295 0.13511369 0.18865973
0.18179795 0.21565948 0.21809761 -0.07379253 0.24288991 0.16764937 -0.015502976 0.19184534
0.03512105 0.20149373 0.053697508 0.017921625 0.23310272 0.118822895 0.023260616 0.082321376
0.091386564 0.14949779 0.22040261 -0.032609627 0.12760377 0.038048897 0.061221574 0.00054856896
0.33596137 0.04275283 0.10452834 0.27929714 -0.11876557 0.12342836 -0.112930425 -0.032790344

lstm.bias_hh_l0 f4 [200]
00000000: 81bf 0d3e f4ff 7f3e 1bfd 023d 7374 7cbd
00000010: f8fe 033e 6b65 7f3d c2a7 0b3d 1cf8 913e
00000020: 7082 2f3e 9eef 8c3e faf3 4fbd 2f7e 133e
00000030: 570e 08bd d170 54bd 3f40 333d 63cf b83e
00000040: 5063 523e c20d 893e f445 af3d b199 f63d
00000050: 60b6 c43d 0df2 56bb 3b6e 623e e60d bc3d
00000060: 366d 71bd 5fb1 9a3e fbc8 913d 52bf 443e
00000070: 25eb 083d c44a 54bd 6e1c 893c 8d07 f3bd
00000080: 5714 2d3e a06a 2b3e 8636 7b3d 2ba9 e53d
00000090: 6dca 583e 1dc2 f3bb fbab c43c 9263 f93d
000000a0: ce6e 0c3d 9905 213c 444d 583e 4789 f63d
000000b0: d6b3 a13d 6cd1 bf3e 4e77 15bd b3e4 3e3e
000000c0: bf41 083d 84c5 01bd f38d 85bd 76fb 0c3e
000000d0: 3d88 883d 7e79 f83d c78f be3d 7c78 ca3c
000000e0: eb11 82bd 39c5 07be 730f ee3d 23d5 b33d
000000f0: aac9 25bd 503a c83c aef1 dbbd 1c5d abbd
00000100: 0161 0e3d b2c4 29bc 91e2 c33d 95e0 9abd
00000110: 8aa8 ba3d b8a0 bebd b574 2ebd 158a 94bb
00000120: 4a6d dabd 5f08 053e 586f ef3c d9f7 dbbd
00000130: 99fb 38bd 0b02 abbc 1b21 dd3d aaa9 b43c
00000140: 75d8 f43c 1106 eabd 2f9c a2bd 3118 08be
00000150: 7032 3e3d e111 dbbc 4404 f4bd e1fd 6fbd
00000160: 0e22 973b e503 06be f025 95bd 0322 16bd
00000170: 7ddb 8c3d 07ad 793d f563 04be b511 d63d
00000180: 348a f0bd 3002 67bd f927 b33d 6f5a 29bd
00000190: 43fe a93d 7315 fd3c a089 f9bd 9bab f5bd
000001a0: 19d7 0abd 8514 be3d 16c8 4f3d 2555 d2bc
000001b0: 02a8 bbbc 92e5 043e d2f0 95bd a61c 173e
000001c0: 54d1 30bc 9360 203c 509e 6cbd ea36 9cbc
000001d0: e6cc 33bd 5a4f abbd 7028 8f3c 1233 2b3e
000001e0: 3498 6dbd 4dc6 53bd 9a2e 3b3d e79d 603d
000001f0: eb03 f5bb 4c10 763d 2ad1 763d 85ba e53d
00000200: f8cf 7a3d 17bc 2a3e 05ee 04be 91da a2bd
00000210: d465 0c3d 689b 11bd 9d22 e6bc b66c 31bc
00000220: dfdb 2f3d 05da 75bd 3ba8 4b3b 4242 fbbd
00000230: 1fb8 113d b4ec 14bd 1d65 6ebd ba14 c83d
00000240: e1ab 163c caca 3a3e b3a6 c8bd 3a72 47be
00000250: 31af a5bc 31ea 6cbc e24f 9bbd e92d 733e
00000260: 3ac9 a23d d96e 86bc 8597 283e 919f 06bd
00000270: ffe9 f33d 632e a03d 3c7c 8c3d f9f1 e83d
00000280: 8fa4 e0bc 6bd8 833e 59bf cf3c 1d2e 8b3d
00000290: 923d 353d c775 ad3e 161e d13c 171f 9b3e
000002a0: f368 623c 5d8b 123e ae5e 233d 7528 a73d
000002b0: c644 443e bf01 dc3d c6a6 783c 74ba 153e
000002c0: f422 2a3e ae77 073e 75da 613d 8654 933d
000002d0: dde1 173e 8f74 bb3d e160 513e 2511 863e
000002e0: 5343 eb3a 1ed9 fa3d 8ec6 c33c 84f7 3bbd
000002f0: 187e e4bc daa5 883e 471f 14bd d635 1e3e
00000300: dc61 443e 6a14 1b3e a8e4 793e 7d34 bc3e
00000310: de6c db3d 0582 ab3e 0ab4 9cbc 910e c73c
0.13842584 0.24999982 0.03197966 -0.061634492 0.12890232 0.06235258 0.034095533 0.28509605
0.17139602 0.27526563 -0.050769784 0.14403604 -0.0332168 -0.051865403 0.04376244 0.36095724
0.20545697 0.2676831 0.085582644 0.12041033 0.09605098 -0.0032798082 0.22112362 0.091823384
-0.058942042 0.30213448 0.07118412 0.19213608 0.033427376 -0.051829115 0.01673719 -0.118666746
0.1690229 0.16739893 0.061331294 0.11213907 0.2117097 -0.0074389116 0.024007788 0.12177195
0.03428536 0.009827995 0.21123224 0.12037902 0.07895629 0.37464464 -0.03649073 0.1864193
0.033265825 -0.031682506 -0.06521215 0.137678 0.066666104 0.12132548 0.09304767 0.024715655
-0.06351074 -0.13258828 0.116240405 0.08780887 -0.040475525 0.024441868 -0.10739456 -0.083673686
0.03476048 -0.010361837 0.095646985 -0.07562367 0.091141775 -0.093079984 -0.04259177 -0.004533062
-0.106653765 0.12991475 0.029227898 -0.107406326 -0.045161817 -0.020874998 0.1079733 0.022053558
0.029888371 -0.11426938 -0.07939946 -0.13290478 0.04643482 -0.026741924 -0.11914876 -0.058591727
0.004612214 -0.13087423 -0.07282627 -0.03665353 0.068778016 0.060956027 -0.12928756 0.10452596
-0.1174511 -0.05639857 0.087478586 -0.04134601 0.0830045 0.030894017 -0.12184453 -0.11995622
-0.03389654 0.092812575 0.050727926 -0.025675366 -0.02290726 0.12978199 -0.073213235 0.14757022
-0.010792095 0.00978865 -0.057768166 -0.019069154 -0.04389658 -0.083647445 0.017475337 0.167187
-0.05800648 -0.051702786 0.04569874 0.054838087 -0.0074772737 0.060074136 0.06025807 0.112172164
0.06123349 0.16673313 -0.12981422 -0.079518445 0.0342768 -0.035548598 -0.028092677 -0.010829141
0.042934295 -0.060022373 0.0031075615 -0.12268497 0.035575982 -0.03635855 -0.058201898 0.09769578
0.009196253 0.1824142 -0.0979742 -0.19477168 -0.02022514 -0.014460132 -0.07583596 0.23747982
0.07948537 -0.016410278 0.1646405 -0.032867018 0.119098656 0.078213476 0.06859633 0.113742776
-0.027422218 0.2575105 0.025359796 0.06795905 0.04424817 0.3387892 0.025527041 0.30297157
0.013818967 0.14310975 0.039885215 0.081620134 0.1916686 0.107425205 0.015176481 0.14621907
0.16614896 0.13229248 0.055139977 0.07193856 0.14832254 0.09153091 0.20447113 0.26184955
0.0017949141 0.12248443 0.02389839 -0.045890346 -0.027892157 0.26689035 -0.03616264 0.15450224
0.19177955 0.15144506 0.24403632 0.36758795 0.10714124 0.33497635 -0.019128818 0.024298938

lstm.weight_ih_l1 f4 [200, 50]
00000000: b9bd ff3d 84e2 d83d d64d 953d d73a 9d3c
00000010: b302 33be cbe0 8dbd bb27 c03b 9031 1ebe
00000020: 60c5 2dbe 0256 93be 499d 60bd 309f 81bc
00000030: 1c7c 50be 04f9 383d b3e1 88bd f12e 74be
00000040: 8095 0cbe e879 9a3e 866d e6bd 1ba0 09be
00000050: e637 4a3e 1dd2 1fbe 599a 8ebe a188 bb3d
00000060: 1700 413e a519 96bd e272 3c3b 9b5e 7abd
00000070: 7844 3bbd 51df a9bd 9048 68bc 03b6 08bd
00000080: 4b5d 3e3e 55b6 ac3d 9ac2 87bd 3df9 1b3d
00000090: 9352 a8bc 7e68 4c3c f2b7 27be cfe9 593d
000000a0: e065 0a3e 1fba 48be caf3 383e cedb b9bd
000000b0: 0d3a eabc acfe 9ebe 45b5 d0bd 53c8 873e
000000c0: 89e8 05be 0a85 3fbd 1dd2 2c3e 846c f13d
000000d0: d5dd 74bd f568 41be 2484 79be 669f b4bd
000000e0: 775b 6b3d b04b cbbd 3c30 ecbc d9ab 40be
000000f0: 6f41 18be 370e 0cbd 9de4 6ebe b3a6 9cbd
00000100: 9ae0 01be 28e0 82be a373 6bbd 5c75 083d
00000110: f486 29bd 5186 a8bd 0bd4 6a3e fea7 00be
00000120: 4c6b 01be b90d 1b3d f97b 0a3d 0814 88be
00000130: dc2c 3b3e e77f 6ebe becb fb3d a539 653d
00000140: 9de7 a73d 1204 41be fecb b23d ab11 a63c
00000150: e95c 4cbd bdc4 5a3e ce2f 2abe 9bcb 51be
00000160: 0153 18be 6723 af3d 38a1 1cbd 56c9 f43c
00000170: 458c ac3d 6b74 23be 6b81 403e f7d8 cebd
00000180: 52e8 58bb 0069 283e 2e8b 0ebe c95d f8bd
00000190: 1441 ac3d 0385 74bc e293 813d 1b92 c83d
000001a0: 4bb4 7b3d 24dd b6bc f53b f83c c330 44be
000001b0: 9477 b3bd f963 63bc db0d 91bd b24d 30bc
000001c0: 7556 85bd a28b 273d a8e3 403d 3751 66bd
000001d0: cf59 28be 3a5a f83d 49c2 c53d 2e23 b1bd
000001e0: 1225 c4bc acfa 31bd 1342 57be b53f 473e
000001f0: da4f 0d3e 2113 55be 8f62 97bc bad2 52be
00000200: 7e7a 2cbc f898 df3d c72c cf3c 8a79 bbbd
00000210: 7261 d33c dd31 80bb 0d66 8abd bc04 1a3e
00000220: 2be1 a93b 8014 9ebc 8298 e4bc 1b43 b53c
00000230: 4971 003d 9810 073d ad69 483e cf2e 593d
00000240: 8311 873d dd60 4bbe 2007 41bd 6926 3b3e
00000250: 018a 00bd be37 d3bb 293e 483e 29b9 bdbc
00000260: 0962 f13c 2600 25bd 2d38 83bd 99a0 883d
00000270: 64db 483e ec02 a2bb 8271 d23a 1854 ffbd
00000280: d0c9 edbd 83bf 03be 25c5 43be ced4 ca3d
00000290: 1eef c23c c5e9 2d3c 91e5 f9bd 71f6 f33d
000002a0: b9ca 243e 9f3d 37be 2e4d 443e 5b06 3f3d
000002b0: d728 8f3c 933e 403e cec7 103d 1bd5 0bbc
000002c0: 63c1 293e efd6 69be 85de cbbb 2031 213d
000002d0: 7f64 623e 6abd 9bbd 097e 5d3e 2258 07be
000002e0: 9d3a 8d3c d0b6 0d3e 3243 c5b9 cbc5 433c
000002f0: 463d 263d 7f06 68be a50b 43bd b979 70bc
00000300: 28a4 903e 0a8f 693d 6271 4c3e 9227 bc3c
00000310: d625 c1bd 3ac9 1c3e ba38 fcbd 57df 57be
00000320: ead3 67bc 365b 473e e716 e0bd b551 51bc
00000330: a595 45be d91f bf3d 58b0 cabc 262e 61bd
00000340: 7e0c 6a3d 57df a8bd f952 6fbb 81d1 79be
00000350: 1491 0cbe 2c0b adbc 41ca 94bc 5040 33be
00000360: 61f9 59be df6b 5f3e 7977 0fbd a98b bdbd
00000370: 31af c13d e12d 48be 526c 3fbe 1171 ec3c
00000380: 8866 d0bc f5d1 d3bc 5f1c df3d c6c3 83be
00000390: e9aa a33b fbb2 4dbc 53fd 953d 56e9 bcbd
000003a0: 2d18 553e 55a2 d93d d6d7 80bc 538c eeba
000003b0: b770 e03c f53f 54be 1963 31be d44b c33d
000003c0: dcea 9d3d a186 78bd f730 653e 8bce 1dbd
000003d0: 354a dbba 73b3 2bbe 9d33 ab3d 4c16 ef37
000003e0: 715d 99bd d894 74bd 5ef7 673e 12a1 3d3e
000003f0: 1e42 c0bd a06b 923b d2ef 0bbe 9cce 213c
0.124873586 0.105900794 0.07290237 0.019193096 -0.17481498 -0.069276415 0.0058641112 -0.15448594
-0.16969824 -0.28776556 -0.0548375 -0.015822977 -0.20359844 0.045159355 -0.06683674 -0.23846032
-0.13728905 0.30171132 -0.11251359 -0.13439982 0.19747886 -0.15607496 -0.27852133 0.09156919
0.1884769 -0.0732911 0.0028755 -0.06112538 -0.045719594 -0.08294547 -0.0141774565 -0.033376705
0.18590276 0.084332146 -0.06628914 0.03807949 -0.020547187 0.012476085 -0.16378763 0.053201493
0.13515425 -0.1960225 0.18061748 -0.090751275 -0.028592134 -0.31053674 -0.101908244 0.26520023
-0.13076986 -0.046757735 0.16877027 0.11788276 -0.059781868 -0.18887694 -0.24366814 -0.08819465
0.057460275 -0.099265456 -0.028831594 -0.18815555 -0.14868711 -0.034193244 -0.23329397 -0.07648983
-0.12683335 -0.25561643 -0.057483327 0.033315048 -0.041388467 -0.08228744 0.2293245 -0.12564084
-0.12638587 0.037854884 0.033809636 -0.26577783 0.18278831 -0.23290978 0.1229472 0.055963177
0.081984736 -0.18849209 0.08730315 0.020272097 -0.049893294 0.21364112 -0.16619799 -0.20487826
-0.14875413 0.08551674 -0.038239688 0.02988116 0.08425192 -0.15962379 0.18799369 -0.100999765
-0.0033097458 0.16446304 -0.1392028 -0.12127263 0.0841085 -0.014924291 0.063270345 0.097934924
0.061451238 -0.022322245 0.030302027 -0.19159226 -0.08763042 -0.013878816 -0.07082721 -0.0107607115
-0.06510631 0.04090465 0.04709211 -0.056229796 -0.1644051 0.12126584 0.096561976 -0.08649288
-0.023943458 -0.04345195 -0.21021299 0.19457896 0.13799992 -0.20808078 -0.018479614 -0.20588198
-0.010527251 0.10917848 0.025289906 -0.09154041 0.025803301 -0.003912194 -0.06757746 0.15040869
0.005184313 -0.019296885 -0.027904753 0.022126725 0.031358037 0.03297481 0.19571562 0.053023156
0.06595137 -0.19861169 -0.047125936 0.18276371 -0.03138161 -0.006445854 0.19554962 -0.02315958
0.029465692 -0.040283345 -0.06407199 0.066712566 0.19614941 -0.004944196 0.0016055556 -0.124672115
-0.11610758 -0.12866025 -0.19118173 0.099038705 0.02379566 0.010614817 -0.122019894 0.11912239
0.16092958 -0.178946 0.19170067 0.04663692 0.017475529 0.1877387 0.0353468 -0.008534695
0.16577677 -0.22835897 -0.0062215948 0.03935349 0.22108649 -0.07604487 0.2163011 -0.13217214
0.017239863 0.13839269 -0.00037624832 0.011949013 0.04058578 -0.22658728 -0.047618527 -0.014677458
0.2825024 0.05702118 0.19965127 0.022968087 -0.09431045 0.15311137 -0.12315507 -0.21081291
-0.014149645 0.19468388 -0.10941868 -0.012775828 -0.19295366 0.09332246 -0.02474229 -0.05497565
0.05714082 -0.08245724 -0.0036517961 -0.24396326 -0.13727218 -0.021123491 -0.018162848 -0.17505002
-0.21286537 0.21818493 -0.035026047 -0.09255154 0.09457243 -0.19548751 -0.18693665 0.028862508
-0.025439516 -0.025856951 0.10894083 -0.257353 0.0049947393 -0.012554879 0.073237084 -0.09224193
0.20810004 0.106266655 -0.015727919 -0.0018199779 0.027397497 -0.20727523 -0.17322959 0.095359474
0.077108115 -0.060675267 0.2238196 -0.038527053 -0.001673049 -0.16767673 0.08359454 2.8501403e-05
-0.07488526 -0.05971226 0.22652957 0.18518475 -0.09387611 0.0044683963 -0.13665703 0.00987592

lstm.weight_hh_l1 f4 [200, 50]
00000000: 6f0f adbd 3bad 84bd 9b1d d4bd 993b 073c
00000010: 0bfe 1a3d 461b 9abd bfa5 4bbd 4d23 f0bb
00000020: e1a2 513d 2139 88bd 71d9 a8bc c983 eebd
00000030: aa7e 9dbc e4cd 023d 3e79 193d 0e1a e7bd
00000040: 9432 a8bd 96b3 d93d b372 66bd 46f5 87bd
00000050: 6f80 ff3d f2e7 933d 0896 f8bd b6ab 503d
00000060: 8dda 943b 774d ee3c 4bfc 03be d5d6 9f3d
00000070: 939d 723d 5d46 afbd 3175 e53d 9c27 f83d
00000080: dad1 e33d c0e6 123d 370f 0a3e 1b67 efbc
00000090: 7634 693c e7eb 933d 983d fc3c 33d4 7f3d
000000a0: c7d3 183d dfda 01be 52ab 103e c80d 38bc
000000b0: ba42 153d 69a7 9d3d 9222 b8bb 7bbf 05be
000000c0: 4fa8 a13c 22c1 e03d 78fa 203b d546 b2bd
000000d0: 7678 5f3d 44b2 bc3d cd88 d73d 4a69 6e3c
000000e0: 82e5 b83d 5c00 9d3d db47 02be 8bbc 9ebd
000000f0: dd1f a5bd 72a7 d6bd 055b 30bd 23a6 0e3e
00000100: b9fb 013e f769 fe3d 1321 823b 946d bf3c
00000110: 1d4d 5d3b e210 d6bd 2d5f b9bd 427b b9bd
00000120: ea89 6d3d 04eb ef3c ca9a d43c c260 4ebb
00000130: 5ce2 dd3d 92b0 0cbe b337 e83d ad92 c8bd
00000140: 5ed4 9ebd 6fb5 19bd 98c5 a93d ed89 9f3a
00000150: 4e53 2d3d 5935 1c3d 33f3 eebd d1f9 073e
00000160: 39c2 c4bd 12ab ecbc edc4 3b3d 8a5a 3f3d
00000170: 71b2 ecbd cd8f 553c 22f9 ec3d dff0 d43d
00000180: 3f4a c1bd 902d 84bd 2ec8 dabd 0fbf 5c3d
00000190: 0de5 edbd 580b 953d 6023 58bd 2ced adbc
000001a0: ca71 0d3d 1b69 9ebd a195 913d b736 5f3b
000001b0: 778a 85bd a9d5 9bbd 402b 173c 5e3f cbbd
000001c0: 9640 08be 55be db3d 8429 823d 017f 243d
000001d0: fd9e 003e 3c30 adbc a026 adbd f8be dbbd
000001e0: e996 9dbd 0fd4 a7bd 79ca aa3d f427 e23d
000001f0: 4269 7c3d 056d 8dbd 6f7a 3bbd d37d 09be
00000200: 8dbe 6abd 38c7 223b 7fd3 b83d b84a 0e3e
00000210: 5a31 27bd a7e7 b5bc 11f3 fcbd 6ea5 acbd
00000220: 5c5d ea3d 9f5d b8bd b0da e73b 5608 203d
00000230: f90f 2b3c 6ef4 f73d d32b 1fbd 6798 2a3d
00000240: 9946 b53d b9ff e6bd 3411 93bd 5020 4f3d
00000250: f076 943d d171 a4bd 3edd 093e dcf4 7ebc
00000260: 4880 3dbd ec5d fa3d ece6 c63d 9d91 0ebe
00000270: c5eb 40bd dcfa 063e 802f dabc d466 323c
00000280: c19d 183d c1dd b13d def8 0c3e 6ec1 b93d
00000290: 3e22 053e 2c2b 073e 0228 ff3d 19f2 943d
000002a0: 8e61 a0bc f1da ebbd 7830 8f3d 6321 b6bd
000002b0: 33d2 e2bb b850 01be b637 96bd 5f46 0fbe
000002c0: 111a 963d ce12 cabb 19af 443c 517d 08be
000002d0: b4fd 8cbd 8e83 b0bc b66c 0a3d 0d83 03be
000002e0: 7051 90bd c7b2 b5bd 9767 f0bd 55a0 f33d
000002f0: f4b6 50bd b913 9c3d d080 863c e6b1 983d
00000300: 519c 0abe 1280 51bd 5af3 443d ad30 413d
00000310: 4c49 853d 3034 05be 6c31 f2bd eec7 083a
00000320: 0fc9 cc3d c7a7 d9bd 3037 4fbd 54c2 233d
00000330: 7c63 3f3d b07a 9bbc c5f5 fb3d c099 223c
00000340: 0502 33bd 3f50 dabd 0cc6 f5bc 38fa 8b3d
00000350: 2b76 cdbd 9c55 873d 06bf 25bd 695a fc3c
00000360: bbec eebd 2d10 ae3a f13b fd3c 21cb de3d
00000370: db63 8a3d 7ac1 debb e6ff 1e3c a7b3 a0bc
00000380: afd0 c5bd 6562 6cbd 4262 05bd 246b a8bd
00000390: c965 c6bc ea2c d53d 2483 003e a071 f6bc
000003a0: 8a7d b83c 4c1c bf3d 5534 05bd 5b1f 09be
000003b0: 8c4a c2bd fde8 693d a772 953c 4082 00be
000003c0: d0db a2bd cde6 23bd 0a51 c7bd 2745 8ebd
000003d0: 3019 253d acb8 d63d 1c33 10be 0023 c6bc
000003e0: ee23 ecbd fc43 dc3d c992 c53c 7016 f5bd
000003f0: 62a0 b5bd c6eb a33d 7a96 28bd c81b 823d
-0.08450209 -0.064783536 -0.10357209 0.008253955 0.03783993 -0.07524733 -0.049718615 -0.007328427
0.051180724 -0.066515215 -0.020611497 -0.1164623 -0.019225437 0.031934634 0.03746914 -0.112842664
-0.08212772 0.106299564 -0.05626173 -0.06638579 0.12475669 0.072219744 -0.12137991 0.050945006
0.004542655 0.029089672 -0.12889211 0.07804648 0.059232306 -0.085583426 0.11203993 0.1211693
0.111240104 0.03586459 0.13482367 -0.02922397 0.014233699 0.07222729 0.030791089 0.06245823
0.03731134 -0.12681149 0.14127854 -0.011233754 0.03644059 0.076979466 -0.0056193555 -0.13061325
0.019733576 0.10974337 0.0024563354 -0.087049164 0.05455824 0.09213689 0.105241396 0.01455147
0.0902815 0.07666084 -0.12722723 -0.077508055 -0.08062718 -0.104811564 -0.043055553 0.13930564
0.12693681 0.12422555 0.003971228 0.02336768 0.0033767887 -0.10452439 -0.090513565 -0.09056713
0.057992853 0.029286869 0.025952715 -0.0031490778 0.1083419 -0.13739231 0.11338749 -0.09793601
-0.077553496 -0.037526544 0.08289641 0.0012171842 0.042315774 0.038136814 -0.1166748 0.13278891
-0.096073575 -0.028890166 0.0458421 0.046717204 -0.115574725 0.013034773 0.11570956 0.10397505
-0.094379894 -0.06454003 -0.106827125 0.053893145 -0.116159536 0.07277554 -0.05276811 -0.021231256
0.034532346 -0.07734891 0.071086176 0.0034059712 -0.06520551 -0.07609112 0.00922662 -0.09924196
-0.13305888 0.10729662 0.06355575 0.040160183 0.12560649 -0.021141164 -0.08454633 -0.10729784
-0.076947995 -0.08194744 0.083394 0.11042777 0.06162382 -0.069055595 -0.04577106 -0.13426904
-0.05731063 0.0024837982 0.09024715 0.1389569 -0.04081855 -0.022205187 -0.12351049 -0.08429991
0.11443588 -0.09002232 0.00707563 0.03907045 0.01044082 0.12107168 -0.038860153 0.04164925
0.08851356 -0.11279244 -0.071810156 0.050567925 0.07249248 -0.08029521 0.13463303 -0.015561309
-0.046264917 0.122249454 0.097120136 -0.13922735 -0.047099847 0.13181633 -0.026633978 0.010888774
0.03725982 0.08684874 0.1376681 0.09070097 0.13001344 0.13200063 0.12458803 0.07272739
-0.019577768 -0.11516369 0.069916666 -0.08893087 -0.0069220304 -0.12628448 -0.07334845 -0.13991688
0.073291905 -0.0061667925 0.012004637 -0.13329054 -0.068843275 -0.021547105 0.03379508 -0.1284296
-0.07046783 -0.0887199 -0.11738508 0.11895815 -0.050955728 0.07620949 0.016418844 0.074558064
-0.13536192 -0.051147528 0.04808364 0.04716556 0.06508121 -0.13008189 -0.11825833 0.000521778
0.099992864 -0.10627704 -0.05058974 0.039980248 0.046725735 -0.0189794 0.12302736 0.009924352
-0.043703098 -0.10659837 -0.030001663 0.06834835 -0.100323044 0.066081256 -0.040465377 0.03080483
-0.116662465 0.0013279967 0.030912371 0.108785875 0.06757327 -0.0067979665 0.009704566 -0.019616915
-0.09658944 -0.057711024 -0.03256441 -0.082235605 -0.024218457 0.10408957 0.12550026 -0.030083477
0.0225208 0.09331569 -0.03252061 -0.13390867 -0.09486875 0.05710696 0.018243147 -0.12549686
-0.07952082 -0.04001503 -0.09732254 -0.069467835 0.040307224 0.10484442 -0.14081997 -0.024186611
-0.115302905 0.107551545 0.024117844 -0.1196717 -0.08868481 0.080039546 -0.04115913 0.06352955

lstm.bias_ih_l1 f4 [200]
00000000: 07da d9bc 59c7 363c 6381 693d 8c49 94bc
00000010: 298c 383e 2b1e 99bc 9ee4 26bd 3c1f 2e3e
00000020: 95e3 6b3e 50b5 6f3b e6d8 91bd 6241 a03c
00000030: f7c9 873d a823 de3d 3bc1 8e3d 4158 b23c
00000040: e7b7 1b3e ddd6 fd3d 640c 193e 2141 12be
00000050: 152a 4f3c fc4c 0a3e 780f 143e dd30 d33d
00000060: 8fc4 a73e 4578 363d 5dd8 673d 709d c3bd
00000070: febf 223e 3b2f d33d 1e6a b73c 6eea ea3d
00000080: 698a 103e a4b4 9fbd fab4 003e 74c1 3c3e
00000090: 9548 3ebd 352f 023e 760c 1e3e 5b23 76bc
000000a0: 72c1 233e 4bcb 523d bfd6 da3c c4ef ae3d
000000b0: 6372 c53d 8969 ea3d 265b 473e 6135 483d
000000c0: 1f13 233e 11db 4f3d a27d f13d eb6e a4bc
000000d0: 8e21 42bd 525a a63d a6b7 69bd 46fc e7bd
000000e0: 2db3 883d b32f 053e 1a46 fabc 9d84 603d
000000f0: 8abd ee3d bec5 97bd 0bee eb3d 4d33 d83c
00000100: 8917 83bc 9e2d 033e 61f5 d33d 0520 663d
00000110: 8c44 223d 17f1 c1bd 2fc3 90bd 3e19 9abc
00000120: 4520 9b3d 3187 013d fde1 91ba 6866 9abd
00000130: 5d42 003e bd01 0f3e 64ce 0d3e 592f aebd
00000140: 118b b43d 3461 6bbd 4836 293d cfa0 c0bd
00000150: d874 0cbe 8d5c b73d 850d 323d bb0e 00be
00000160: 3a65 3ebd e2b1 b63b e1c5 cabc 94f7 09bd
00000170: b315 97bd 1b29 3c3d 134d ad3d 9bf2 e5bc
00000180: d705 fc3b 2485 0a3e a8d9 d7bd 2b08 2cbd
00000190: 59fe 3abd 90e3 b8ba ceb6 693d 541d cabc
000001a0: dc69 543d 48f6 c8bd 3643 02be de61 5dbd
000001b0: cca1 72bc 0212 a23c 7f4c 93bd 3489 b8bd
000001c0: da74 ddbd 2c82 73bd d080 993d f326 e63d
000001d0: 186a 8ebd a63a b7bd 783b 743d 321c ffbc
000001e0: 0e89 743d e92c e73d 0fb7 8bbd 34f2 05bd
000001f0: 04f3 e73d 5822 933d 73e9 e63d 8a24 99bd
00000200: e6ae d93d 84f3 aebd 6a7c d4bd 4d15 143d
00000210: 14dd 3cbd 5187 f93c 4451 11bd 3602 8a3d
00000220: d0ec 8d3d 9e23 e83b f750 5e3c 6b71 fe3d
00000230: c517 91bc 602a ee3d c74f 763d ff53 e83d
00000240: 9088 4cbd 1c7e a4bd ee6c 34bd bb74 f53d
00000250: 8f12 b6bd 23d1 a13d 40c8 973d c90c 1b3e
00000260: 58fb 0b3e d4c3 113e ee21 7dbd 525f c33b
00000270: 9b72 323c 36ba 9c3c 3ba8 423d c509 9b3d
00000280: 7013 1b3c 86d2 6ebc 226f 353e ed53 3e3d
00000290: 1757 e43d d10b b23d ccfc 373c 2cee 653d
000002a0: 388e 9d3d 5bcb 133d b925 293d 50ed 8fbd
000002b0: f990 9f3d 0527 3f3c d9e2 af3e cabb 243e
000002c0: c0ad 2cbd 5200 123e 531c 43bd df67 cd3c
000002d0: f360 103e d35b 5b3e 7807 593e ba2b 393e
000002e0: bda3 a1bc 67a3 cb39 5077 f93d 6e16 69bd
000002f0: 8481 be3d 0814 e03d f08c 65bd d62e a73d
00000300: e64d 773d bb87 533d 7e9f eb3d bd3c 2b3e
00000310: fa63 623e 370d cf3d 67d2 79bb db8c 113e
-0.026593221 0.011155927 0.05700816 -0.018101476 0.18022217 -0.018691143 -0.04074537 0.17004102
0.23036034 0.0036576577 -0.07121448 0.019562427 0.066303186 0.10846645 0.069704495 0.021770598
0.15206872 0.123944975 0.14946133 -0.14282657 0.0126443105 0.1350593 0.14459026 0.10312054
0.3276715 0.04454829 0.056602824 -0.09551513 0.15893552 0.10311743 0.022389468 0.11470495
0.141153 -0.07798126 0.12569037 0.18433172 -0.04645594 0.1271332 0.15434441 -0.015023078
0.15991762 0.051463407 0.026713727 0.085418254 0.09640958 0.114459105 0.19468364 0.04887903
0.15925263 0.050746027 0.11791541 -0.020072421 -0.04739528 0.08122696 -0.057059906 -0.11327414
0.066748 0.13006477 -0.030551005 0.05481397 0.116572455 -0.07410763 0.115200125 0.02639165
-0.016002433 0.1281037 0.10349537 0.05618288 0.039616153 -0.09469812 -0.07068478 -0.018810865
0.07574514 0.03162307 -0.0011129972 -0.07539064 0.12525316 0.13965507 0.13848263 -0.085051246
0.08815587 -0.057465747 0.041311532 -0.09405672 -0.13716447 0.089531995 0.043469924 -0.12505619
-0.046483256 0.0055754045 -0.02475256 -0.033683375 -0.07377186 0.04593764 0.08461966 -0.028069785
0.007691126 0.13527352 -0.105395615 -0.041999977 -0.04565272 -0.0014105905 0.0570591 -0.024672188
0.051858768 -0.098125994 -0.12720951 -0.05404841 -0.014809083 0.019783977 -0.07192325 -0.090105444
-0.10813303 -0.059450313 0.07495272 0.11237898 -0.069538295 -0.08946733 0.059627026 -0.031141374
0.059701018 0.11287863 -0.06822025 -0.032701686 0.113256484 0.07184285 0.11274996 -0.074776724
0.10629062 -0.08542541 -0.103752926 0.036153127 -0.046109274 0.030460032 -0.03547789 0.06738703
0.06929934 0.007084324 0.013569108 0.124239765 -0.01771153 0.11629176 0.060134675 0.11344146
-0.049934924 -0.08031866 -0.044049196 0.11985155 -0.088902585 0.07901218 0.074112415 0.15141596
0.13670099 0.14234859 -0.061799936 0.005962291 0.010891582 0.019131761 0.04752372 0.07570223
0.0094650835 -0.01457656 0.17718175 0.046466757 0.111494236 0.0869366 0.011229705 0.05613534
0.07693142 0.036082607 0.04129574 -0.07027686 0.07791323 0.011667018 0.3435276 0.16087261
-0.04215789 0.14257935 -0.047634434 0.025073944 0.14099483 0.21421747 0.21194255 0.18083087
-0.019731397 0.00038840921 0.1218096 -0.056906156 0.09302047 0.10941321 -0.05604261 0.0816323
0.060377024 0.051643115 0.1150503 0.16722389 0.2210845 0.101099424 -0.0038119794 0.14213888

lstm.bias_hh_l1 f4 [200]
00000000: 557a 303e 64f4 813d 232a 82ba 71ef 823e
00000010: 39cc 133e f6e4 4e3e 6922 34bd 9a4a 6abd
00000020: fd4a 8a3d 7025 663e 3c7d efbc eaf3 353d
00000030: d88c 813d 6387 643d a24c 6a3e 1646 813d
00000040: da13 033e 9758 343c 93c9 903c b8ef a9bd
00000050: 0e2f 5d3e caf0 ad3d 7a2f c53d 0c76 e23d
00000060: 0ac6 293e ea9a 793d 2ebd 14bd ca94 93bd
00000070: 23c3 57bd d758 7ebd cf92 64bd ea6f efbb
00000080: 3827 9c3c e052 2f3e 0e42 43bd 36b2 42ba
00000090: b55c a5bc dfe9 993d f639 823e b8fa 223e
000000a0: 1538 903d 96d5 cebc 1ce9 ce3d 3382 f93d
000000b0: 50d5 683d 5be0 493e a109 8d3e 5b6e 463d
000000c0: dc18 9a3d f7c7 803e 1f2a 673d ca92 c1bc
000000d0: 476d c1bc 48c3 e7bd 59db 77bd 5ddf bbbd
000000e0: b450 9d3d faf7 293d 3085 e73d 01bf c83c
000000f0: cff0 00bc 0eb8 fdbd 3724 4a3d fe81 45bd
00000100: a65d ca3d aea8 843c 6aca 863d 7674 4f3d
00000110: 01bf 0bbe 98fa 04be 6178 89bd 9f81 2dbb
00000120: 73af 98bc 76d8 a4bd e04f 10be dd5c 963d
00000130: f454 7fbc c439 a93d 8847 31bc 932f 3e3d
00000140: 27db 943d dc88 5cbd 1011 f5bd c2d2 bebb
00000150: 45cd 3dbd d127 babc 7476 673d fc85 88bd
00000160: e167 e73d ed79 d7bd cc31 f83d 90b3 f53d
00000170: 7231 353d e9b7 b83b 504d afbd 9a05 043e
00000180: 523a 753d a446 8dbc 5c65 51bd bd8c 8fbd
00000190: 3004 f2bd 205c c13d b0b0 a33d 0b9a f33c
000001a0: a248 02be 39a0 8d3c 2bf7 1c3d c7d5 dcbb
000001b0: 1f10 1b3d dda9 f33c 301e 88bd 458d 013c
000001c0: d4c4 893d 106a 9a3d 1c44 92bd 4bcf b3bc
000001d0: 3dbb b73d 7dba 803d 51ad d83d f8b6 cebd
000001e0: b799 ccbc 0c4c 003e 4dac 8bbb e1c9 b13b
000001f0: fd9b ccbd 9f97 28bd 44e0 bfbc ad58 c9bc
00000200: bfdf 7fbb 657c 15bd 8c96 b8bd a0eb 9fbd
00000210: fb4c f1bc b104 e63d 8b12 9fbd 4111 3cbc
00000220: afd2 193d 81d7 7abc 11ae 3abc 2456 143c
00000230: dcbc e53d f3b0 913d 3b93 08be b349 91bd
00000240: f575 a2bd bcfb 003d be26 4ebc 1734 f3bd
00000250: b57c de3d 47b9 76bd 88ce 423e 3946 03bd
00000260: e588 823d 201d 353e 90b1 a83c ccbc ca3d
00000270: 34bf 8b3d dadf 1c3d 97ae bcbc b8c1 ce3b
00000280: 7777 ec3b c4ef 193e bc12 1e3d 31e9 f7bc
00000290: ea09 5a3c cdf4 a0bd 6b6c 213e 38c1 eb3c
000002a0: f186 053e 08c3 5abd ce19 183d fdd9 c93d
000002b0: 446f f03c 78b5 813d a62e aa3e c00f 523d
000002c0: 17ae 0ebb 2ca5 333e 7535 e13d a7a6 083e
000002d0: 7459 ee3d bd1d 3b3e c82d 1dbd ee56 58bc
000002e0: f085 5abd 829b da3d f061 5e3d c812 5c3e
000002f0: 9208 b73d 1fdd d73d d94a 243e 1827 a03d
00000300: 5195 c33d 2037 f7bc 0f14 1e3d e913 823d
00000310: dd68 813e 9faf 073e 12d6 783d 7b85 c83d
0.17234166 0.06345442 -0.0009930771 0.25573304 0.14433374 0.20204529 -0.04397813 -0.05720005
0.06752584 0.22475219 -0.029234521 0.044422068 0.06325692 0.055793177 0.22880796 0.06312196
0.12800542 0.01100745 0.017674243 -0.08297676 0.21599981 0.084931925 0.09628196 0.11057672
0.16579452 0.060938753 -0.03631323 -0.07206114 -0.05267633 -0.062096443 -0.05580407 -0.0073070424
0.01906167 0.17121458 -0.047670417 -0.0007427068 -0.020185808 0.075153105 0.25434846 0.15915954
0.07041947 -0.02524833 0.10103056 0.12183037 0.056844056 0.19714491 0.2754641 0.048445087
0.07524273 0.2515256 0.056436654 -0.023629565 -0.023611678 -0.11316544 -0.06051192 -0.091734625
0.076814085 0.041496255 0.113047004 0.02450514 -0.007869913 -0.12388621 0.049350943 -0.048219673
0.09881143 0.016193714 0.06581576 0.050648175 -0.13647081 -0.12986219 -0.067124136 -0.0026474965
-0.018638348 -0.08049099 -0.1409297 0.07341931 -0.015584219 0.08262971 -0.010820277 0.04643209
0.072683625 -0.053841457 -0.11966145 -0.005823464 -0.04633834 -0.022724064 0.05650945 -0.066661805
0.1129911 -0.10521302 0.12118873 0.119971395 0.044236608 0.005637158 -0.08559668 0.12892762
0.05987007 -0.017245598 -0.051122054 -0.070092656 -0.11817205 0.094413996 0.07992685 0.02973654
-0.1272302 0.017288314 0.038321655 -0.0067393514 0.03785717 0.029744083 -0.06646383 0.007907216
0.06726995 0.07539761 -0.07141897 -0.02194943 0.0897126 0.0628557 0.105799325 -0.10093492
-0.02497564 0.1252901 -0.004262483 0.005425677 -0.0999069 -0.041160222 -0.023422368 -0.024578417
-0.0039043275 -0.036495585 -0.090130895 -0.07808614 -0.029455652 0.112313636 -0.07767209 -0.011478723
0.03755444 -0.015310169 -0.01139404 0.009053741 0.11217663 0.071138285 -0.13337414 -0.07094135
-0.07932655 0.031490073 -0.012582479 -0.1187517 0.1086363 -0.060235288 0.19024098 -0.03204939
0.06373767 0.17686892 0.02059248 0.098992914 0.068235785 0.03829942 -0.02303247 0.006309714
0.0072163898 0.1503287 0.038592085 -0.030262562 0.013308028 -0.07859192 0.15764014 0.028778657
0.13039757 -0.053408653 0.037133984 0.09856031 0.02934993 0.063334405 0.33238715 0.05128455
-0.0021771246 0.17543477 0.10996524 0.13344823 0.116381556 0.18273063 -0.03837374 -0.013204319
-0.05335039 0.10674192 0.05429262 0.2149154 0.089371815 0.105402224 0.16044177 0.078199565
0.09549964 -0.030177653 0.038593348 0.06351454 0.25275317 0.13250588 0.06075103 0.097910844

lstm.weight_ih_l2 f4 [200, 50]
00000000: 0fc9 803d 4a22 2e3d 1169 22bd 6d54 153d
00000010: 10c7 f33c c567 263e cfb8 7ebd 0a6f 1a3d
00000020: ce92 f93b 4eae e6bc 0a7a e83d aed1 993d
00000030: 0d7d 963d 46a5 dcbd 4625 9ebb 149f 193d
00000040: 9365 b63d 3034 d2bd f3fc 703d 9957 d4bd
00000050: a608 a83d 3dec d7bc 72f0 9fbd b859 53bd
00000060: 8d25 223e 03c9 bab8 93bb 1abe f524 ebbc
00000070: de44 493d e3db 9dbd 921d eabc 65cf 58bc
00000080: b134 1c3e dee3 b33c 0e6a 0d3e a590 6d3c
00000090: 001a 1f3e d9bc fe3c a26b 04be da75 c13c
000000a0: a091 093d 3e0c 1dbe 55ca 9b3d 5575 eeba
000000b0: 7220 463d f413 83bd d383 fabc a6cd cf3d
000000c0: 6a6e 983c bdad 693d 7063 febc 4349 193c
000000d0: 8aa8 853d 624b 94bc 407c d63d f984 2abe
000000e0: 3592 9d3d 6bcb 6f3d aebe 1c3e 2064 f43d
000000f0: 6241 893d 4fb1 123d 5035 743d 7269 293e
00000100: 49cd 063e 6f7f 5dbc 08ff 9b3d 19b2 0b3c
00000110: 72a5 0b3e db19 613d 06cb a0bd bc67 44bc
00000120: d228 10be ee55 8e3d 7ef6 433d 50f5 b53d
00000130: 1631 53bb e235 efbb abab d73c 77e2 90bd
00000140: de86 95bd 7d6d 8fbd 1942 e5bd 01ce 093d
00000150: 2e00 e7bd 0205 263e ba34 4f3c dea2 683d
00000160: c66c 9fbd e8e1 123e 7c93 abbd 3c04 8abd
00000170: 15e2 13bd 62d8 f33d 99b7 c73d f142 c03d
00000180: 6af2 9d3d b963 2b3e 24f8 253c 3371 443d
00000190: 087d 9dbc 0be1 0c3e 5d36 363e d5d9 323d
000001a0: 04e7 55bd 1320 c9bb 54d1 403c 5630 8b3d
000001b0: f99f 383d dc91 34bd f304 82bd f466 60bc
000001c0: 3ffb 3dbd 7201 babd fd59 3cbd 4d82 d53d
000001d0: 87b6 fcbc 9c8a a4bc 7190 e33d f44f 59bc
000001e0: 2920 4c3d 2c06 4fbd c8a3 1cbe 6f83 093d
000001f0: e09d b73d 01be adba b9ca 713d 15f7 22be
00000200: 6198 b3bd 6ce5 e7bd a19b 153b a47a 0abe
00000210: 16a2 9c3d 48d1 213e c65c a4bd ed83 103e
00000220: bff1 04bd 3cb1 2b3d 658c 17bc ea96 52bd
00000230: fe9c 383d ba80 59bd e911 51bc 71cb d43c
00000240: ddfe 603d 51c7 b0bd 46af 92bd 8a7e dc3c
00000250: 63a9 033d aa1e 39be 4b4b 84bd 19d4 c93d
00000260: 3787 82bc 435a 89bc 4804 213c 2a50 683d
00000270: 8f5d 9fbd bbb5 ec3d 0d63 913c 72b2 9c3d
00000280: 81d4 3b3d d643 79bb 332a e23c aab7 60bd
00000290: 48c1 db3d e1fb f43d 1553 553d de5c 183e
000002a0: 6e15 c63d 1963 89bd 2734 9b3d 2a28 ce3d
000002b0: 4928 97bb 011c bdbd 5120 d1bc 35d3 d43d
000002c0: aafe 55bd 3340 0bbe 14cd e13d 5a51 34bd
000002d0: b684 76bc b4ed 0ebe e68d 52bd 50fa e13b
000002e0: b6e1 d0bb dc95 bf3d 22bf aa3c 3695 ca3d
000002f0: 1ffa d03d e412 e53d f79c a4bd dba3 89bd
00000300: e235 c03d d7c6 a33d 373d 6fbd 8e5e c43c
00000310: 30b8 253e 21b3 813c c196 e93c faa3 5fbd
00000320: d6c4 1e3b bc84 b1bd f7e0 52bd 7815 26be
00000330: e778 bbbd 4a7b 553c 567f 2bbe 6245 7cbd
00000340: 6773 2a3e e745 3b3d 86a9 2dbe c1b5 07be
00000350: 0cde ca3a 1f3c 47bd ff9f 493d df4e 333d
00000360: d030 4a3e 1862 343d 090b 2bbd 19a7 95bc
00000370: 2540 fbbd 97b9 263e d92b 87bd 21ec ad3d
00000380: 53a4 763d a4a9 743d 081f 8f3c ccce 0bbe
00000390: 57df 2c3e c6d5 69bd 456d c3bd a828 94bd
000003a0: 71f7 32be 29e7 1d3e f5fa 4bbd 3eef 91ba
000003b0: 79e2 c9bd fac0 e4bd 1096 3abd f8e0 e53d
000003c0: c76e 723d 0188 183e dee4 aa3d 91ce 033d
000003d0: 2167 01bd 7211 1b3e 3209 2d3e ce14 5ebd
000003e0: 435e 6d3d 1aa0 83bd 7bc5 1bbd 1fd2 5dbe
000003f0: 9948 853d 7930 8c3e 01e0 8e3d d836 593e
0.06288349 0.04251317 -0.03965098 0.036457468 0.029758006 0.16250522 -0.062187966 0.03770355
0.0076163774 -0.028159287 0.11351402 0.07510696 0.0734807 -0.10773711 -0.0048262207 0.037505224
0.089060925 -0.1026386 0.05883498 -0.103682704 0.082047746 -0.026357764 -0.07809533 -0.051599234
0.15834637 -8.9066125e-05 -0.15110616 -0.028704146 0.049137942 -0.07707956 -0.028578553 -0.01323304
0.15254475 0.021959241 0.13809988 0.014499818 0.15537262 0.031095909 -0.12931684 0.023615766
0.033586144 -0.15336701 0.07606951 -0.0018192927 0.048370786 -0.0640029 -0.030580437 0.10146646
0.018607337 0.057050455 -0.031053275 0.009355846 0.06526287 -0.018102352 0.104729176 -0.16652288
0.076939024 0.058543604 0.15307114 0.1193316 0.06701924 0.035813626 0.059621155 0.1654413
0.13164248 -0.013519152 0.07617003 0.0085263485 0.13637331 0.0549563 -0.07851224 -0.011987623
-0.14078072 0.069499835 0.047842495 0.0888468 -0.0032225302 -0.0073001245 0.026326975 -0.07074445
-0.073011145 -0.07003305 -0.11194248 0.033643726 -0.11279331 0.16212848 0.012646848 0.056795947
-0.07784419 0.14343989 -0.0837774 -0.06739089 -0.03610428 0.11906506 0.09751815 0.09387768
0.077122524 0.1673726 0.010129962 0.047959518 -0.019224659 0.13757722 0.17794175 0.043664772
-0.052222267 -0.0061378567 0.011768658 0.06796329 0.045074437 -0.044084415 -0.063486 -0.013696421
-0.046382185 -0.09082307 -0.045984257 0.104252435 -0.030848755 -0.020085625 0.111115344 -0.013263691
0.049835358 -0.050542995 -0.15296853 0.03357261 0.08965659 -0.0013255478 0.059031222 -0.15914567
-0.08769298 -0.113230556 0.0022828358 -0.13523346 0.07648103 0.1580249 -0.08025508 0.14112826
-0.03245711 0.04191707 -0.009249781 -0.051413454 0.045071594 -0.05310128 -0.012760618 0.025975915
0.054930557 -0.086317666 -0.07162337 0.026915807 0.03214396 -0.18078104 -0.064596735 0.098549075
-0.015933616 -0.016766673 0.009827681 0.056717075 -0.07781517 0.115581 0.017747426 0.07651223
0.045856956 -0.0038034818 0.027608013 -0.054862656 0.10730225 0.119621046 0.052081186 0.14879176
0.09672056 -0.067083545 0.07578307 0.100662544 -0.0046129567 -0.09233857 -0.025528105 0.10391847
-0.05224482 -0.13598709 0.11025444 -0.044022895 -0.015046289 -0.13957864 -0.051404856 0.0068962947
-0.006374563 0.09354755 0.020843092 0.09891741 0.10203957 0.11185244 -0.08037751 -0.06720706
0.09385277 0.0799691 -0.05840799 0.023970868 0.16183543 0.015832486 0.028514268 -0.05459974
0.002422621 -0.08667895 -0.051484074 -0.16219127 -0.0915392 0.013029883 -0.16747794 -0.061589606
0.16645585 0.04572096 -0.169592 -0.13252927 0.0015477552 -0.04864132 0.04922485 0.04377639
0.19745183 0.044038862 -0.04175857 -0.018268155 -0.12268094 0.16281734 -0.0660016 0.08492304
0.060215306 0.059732094 0.017470852 -0.13653105 0.16882072 -0.057088636 -0.09542326 -0.07234317
-0.17477204 0.15420212 -0.04979988 -0.0011133922 -0.09857649 -0.1116962 -0.045553267 0.1122455
0.059187677 0.14895631 0.08344434 0.03217942 -0.031592492 0.15143374 0.16898039 -0.05421906
0.057951223 -0.06427021 -0.03803013 -0.21662186 0.065079875 0.27380732 0.06976319 0.21212327
